…
=============================================================================================================
Layer (type (var_name))                  Input Shape               Output Shape              Param #                   Param %                   Kernel Shape              Mult-Adds                 Trainable
=======================================================================================================================================================================================================================
Model (Model)                            [128, 3, 64, 64]          [128, 42]                 --                             --                   --                        --                        True
├─Sequential (conv1)                     [128, 3, 64, 64]          [128, 64, 64, 64]         --                             --                   --                        --                        True
│    └─Conv2d (0)                        [128, 3, 64, 64]          [128, 64, 64, 64]         1,792                       0.02%                   [3, 3]                    939,524,096               True
│    └─BatchNorm2d (1)                   [128, 64, 64, 64]         [128, 64, 64, 64]         128                         0.00%                   --                        16,384                    True
│    └─ReLU (2)                          [128, 64, 64, 64]         [128, 64, 64, 64]         --                             --                   --                        --                        --
├─Sequential (conv2)                     [128, 64, 64, 64]         [128, 128, 32, 32]        --                             --                   --                        --                        True
│    └─Conv2d (0)                        [128, 64, 64, 64]         [128, 128, 64, 64]        73,856                      0.81%                   [3, 3]                    38,721,814,528            True
│    └─BatchNorm2d (1)                   [128, 128, 64, 64]        [128, 128, 64, 64]        256                         0.00%                   --                        32,768                    True
│    └─ReLU (2)                          [128, 128, 64, 64]        [128, 128, 64, 64]        --                             --                   --                        --                        --
│    └─MaxPool2d (3)                     [128, 128, 64, 64]        [128, 128, 32, 32]        --                             --                   2                         --                        --
├─Sequential (shuffle1_v2)               [128, 128, 32, 32]        [128, 128, 32, 32]        --                             --                   --                        --                        True
│    └─Conv2d (0)                        [128, 128, 32, 32]        [128, 512, 32, 32]        66,048                      0.72%                   [1, 1]                    8,657,043,456             True
│    └─BatchNorm2d (1)                   [128, 512, 32, 32]        [128, 512, 32, 32]        1,024                       0.01%                   --                        131,072                   True
│    └─Conv2d (2)                        [128, 512, 32, 32]        [128, 512, 32, 32]        5,120                       0.06%                   [3, 3]                    671,088,640               True
│    └─BatchNorm2d (3)                   [128, 512, 32, 32]        [128, 512, 32, 32]        1,024                       0.01%                   --                        131,072                   True
│    └─Conv2d (4)                        [128, 512, 32, 32]        [128, 128, 32, 32]        65,664                      0.72%                   [1, 1]                    8,606,711,808             True
│    └─BatchNorm2d (5)                   [128, 128, 32, 32]        [128, 128, 32, 32]        256                         0.00%                   --                        32,768                    True
│    └─ReLU (6)                          [128, 128, 32, 32]        [128, 128, 32, 32]        --                             --                   --                        --                        --
├─Sequential (conv3)                     [128, 128, 32, 32]        [128, 256, 16, 16]        --                             --                   --                        --                        True
│    └─Conv2d (0)                        [128, 128, 32, 32]        [128, 256, 32, 32]        295,168                     3.23%                   [3, 3]                    38,688,260,096            True
│    └─BatchNorm2d (1)                   [128, 256, 32, 32]        [128, 256, 32, 32]        512                         0.01%                   --                        65,536                    True
│    └─ReLU (2)                          [128, 256, 32, 32]        [128, 256, 32, 32]        --                             --                   --                        --                        --
│    └─MaxPool2d (3)                     [128, 256, 32, 32]        [128, 256, 16, 16]        --                             --                   2                         --                        --
├─Sequential (conv4)                     [128, 256, 16, 16]        [128, 512, 8, 8]          --                             --                   --                        --                        True
│    └─Conv2d (0)                        [128, 256, 16, 16]        [128, 512, 16, 16]        1,180,160                  12.91%                   [3, 3]                    38,671,482,880            True
│    └─BatchNorm2d (1)                   [128, 512, 16, 16]        [128, 512, 16, 16]        1,024                       0.01%                   --                        131,072                   True
│    └─ReLU (2)                          [128, 512, 16, 16]        [128, 512, 16, 16]        --                             --                   --                        --                        --
│    └─MaxPool2d (3)                     [128, 512, 16, 16]        [128, 512, 8, 8]          --                             --                   2                         --                        --
├─Sequential (shuffle2_v2)               [128, 512, 8, 8]          [128, 512, 8, 8]          --                             --                   --                        --                        True
│    └─Conv2d (0)                        [128, 512, 8, 8]          [128, 2048, 8, 8]         1,050,624                  11.50%                   [1, 1]                    8,606,711,808             True
│    └─BatchNorm2d (1)                   [128, 2048, 8, 8]         [128, 2048, 8, 8]         4,096                       0.04%                   --                        524,288                   True
│    └─Conv2d (2)                        [128, 2048, 8, 8]         [128, 2048, 8, 8]         20,480                      0.22%                   [3, 3]                    167,772,160               True
│    └─BatchNorm2d (3)                   [128, 2048, 8, 8]         [128, 2048, 8, 8]         4,096                       0.04%                   --                        524,288                   True
│    └─Conv2d (4)                        [128, 2048, 8, 8]         [128, 512, 8, 8]          1,049,088                  11.48%                   [1, 1]                    8,594,128,896             True
│    └─BatchNorm2d (5)                   [128, 512, 8, 8]          [128, 512, 8, 8]          1,024                       0.01%                   --                        131,072                   True
│    └─ReLU (6)                          [128, 512, 8, 8]          [128, 512, 8, 8]          --                             --                   --                        --                        --
├─Sequential (conv5)                     [128, 512, 8, 8]          [128, 1024, 4, 4]         --                             --                   --                        --                        True
│    └─Conv2d (0)                        [128, 512, 8, 8]          [128, 1024, 8, 8]         4,719,616                  51.64%                   [3, 3]                    38,663,094,272            True
│    └─BatchNorm2d (1)                   [128, 1024, 8, 8]         [128, 1024, 8, 8]         2,048                       0.02%                   --                        262,144                   True
│    └─ReLU (2)                          [128, 1024, 8, 8]         [128, 1024, 8, 8]         --                             --                   --                        --                        --
│    └─MaxPool2d (3)                     [128, 1024, 8, 8]         [128, 1024, 4, 4]         --                             --                   2                         --                        --
├─Sequential (res)                       [128, 1024, 4, 4]         [128, 42]                 --                             --                   --                        --                        True
│    └─MaxPool2d (0)                     [128, 1024, 4, 4]         [128, 1024, 1, 1]         --                             --                   4                         --                        --
│    └─Flatten (1)                       [128, 1024, 1, 1]         [128, 1024]               --                             --                   --                        --                        --
│    └─Dropout (2)                       [128, 1024]               [128, 1024]               --                             --                   --                        --                        --
│    └─Linear (3)                        [128, 1024]               [128, 512]                524,800                     5.74%                   --                        67,174,400                True
│    └─Linear (4)                        [128, 512]                [128, 128]                65,664                      0.72%                   --                        8,404,992                 True
│    └─Linear (5)                        [128, 128]                [128, 42]                 5,418                       0.06%                   --                        693,504                   True
=======================================================================================================================================================================================================================
Total params: 9,138,986
Trainable params: 9,138,986
Non-trainable params: 0
Total mult-adds (G): 191.07
…
