==========================================================================================
Layer (type:depth-idx)                   Output Shape              Param #
==========================================================================================
Model                                    [128, 42]                 --
├─Sequential: 1-1                        [128, 64, 64, 64]         --
│    └─Conv2d: 2-1                       [128, 64, 64, 64]         1,792
│    └─BatchNorm2d: 2-2                  [128, 64, 64, 64]         128
│    └─ReLU: 2-3                         [128, 64, 64, 64]         --
├─Sequential: 1-2                        [128, 128, 32, 32]        --
│    └─Conv2d: 2-4                       [128, 128, 64, 64]        73,856
│    └─BatchNorm2d: 2-5                  [128, 128, 64, 64]        256
│    └─ReLU: 2-6                         [128, 128, 64, 64]        --
│    └─MaxPool2d: 2-7                    [128, 128, 32, 32]        --
├─Sequential: 1-3                        [128, 128, 32, 32]        --
│    └─Sequential: 2-8                   [128, 128, 32, 32]        --
│    │    └─Conv2d: 3-1                  [128, 128, 32, 32]        147,584
│    │    └─BatchNorm2d: 3-2             [128, 128, 32, 32]        256
│    │    └─ReLU: 3-3                    [128, 128, 32, 32]        --
│    └─Sequential: 2-9                   [128, 128, 32, 32]        --
│    │    └─Conv2d: 3-4                  [128, 128, 32, 32]        147,584
│    │    └─BatchNorm2d: 3-5             [128, 128, 32, 32]        256
│    │    └─ReLU: 3-6                    [128, 128, 32, 32]        --
├─Sequential: 1-4                        [128, 256, 16, 16]        --
│    └─Conv2d: 2-10                      [128, 256, 32, 32]        295,168
│    └─BatchNorm2d: 2-11                 [128, 256, 32, 32]        512
│    └─ReLU: 2-12                        [128, 256, 32, 32]        --
│    └─MaxPool2d: 2-13                   [128, 256, 16, 16]        --
├─Sequential: 1-5                        [128, 512, 8, 8]          --
│    └─Conv2d: 2-14                      [128, 512, 16, 16]        1,180,160
│    └─BatchNorm2d: 2-15                 [128, 512, 16, 16]        1,024
│    └─ReLU: 2-16                        [128, 512, 16, 16]        --
│    └─MaxPool2d: 2-17                   [128, 512, 8, 8]          --
├─Sequential: 1-6                        [128, 512, 8, 8]          --
│    └─Sequential: 2-18                  [128, 512, 8, 8]          --
│    │    └─Conv2d: 3-7                  [128, 512, 8, 8]          2,359,808
│    │    └─BatchNorm2d: 3-8             [128, 512, 8, 8]          1,024
│    │    └─ReLU: 3-9                    [128, 512, 8, 8]          --
│    └─Sequential: 2-19                  [128, 512, 8, 8]          --
│    │    └─Conv2d: 3-10                 [128, 512, 8, 8]          2,359,808
│    │    └─BatchNorm2d: 3-11            [128, 512, 8, 8]          1,024
│    │    └─ReLU: 3-12                   [128, 512, 8, 8]          --
├─Sequential: 1-7                        [128, 1024, 4, 4]         --
│    └─Conv2d: 2-20                      [128, 1024, 8, 8]         4,719,616
│    └─BatchNorm2d: 2-21                 [128, 1024, 8, 8]         2,048
│    └─ReLU: 2-22                        [128, 1024, 8, 8]         --
│    └─MaxPool2d: 2-23                   [128, 1024, 4, 4]         --
├─Sequential: 1-8                        [128, 42]                 --
│    └─MaxPool2d: 2-24                   [128, 1024, 1, 1]         --
│    └─Flatten: 2-25                     [128, 1024]               --
│    └─Linear: 2-26                      [128, 42]                 43,050
==========================================================================================
Total params: 11,334,954
Trainable params: 11,334,954
Non-trainable params: 0
Total mult-adds (G): 233.04
==========================================================================================
Input size (MB): 6.29
Forward/backward pass size (MB): 3221.27
Params size (MB): 45.34
Estimated Total Size (MB): 3272.90
==========================================================================================
==========================================================================================
Layer (type:depth-idx)                   Output Shape              Param #
==========================================================================================
Model                                    [128, 42]                 --
├─Sequential: 1-1                        [128, 64, 64, 64]         --
│    └─Conv2d: 2-1                       [128, 64, 64, 64]         1,792
│    └─BatchNorm2d: 2-2                  [128, 64, 64, 64]         128
│    └─ReLU: 2-3                         [128, 64, 64, 64]         --
├─Sequential: 1-2                        [128, 128, 32, 32]        --
│    └─Conv2d: 2-4                       [128, 128, 64, 64]        73,856
│    └─BatchNorm2d: 2-5                  [128, 128, 64, 64]        256
│    └─ReLU: 2-6                         [128, 128, 64, 64]        --
│    └─MaxPool2d: 2-7                    [128, 128, 32, 32]        --
├─Sequential: 1-3                        [128, 128, 32, 32]        --
│    └─Sequential: 2-8                   [128, 128, 32, 32]        --
│    │    └─Conv2d: 3-1                  [128, 128, 32, 32]        147,584
│    │    └─BatchNorm2d: 3-2             [128, 128, 32, 32]        256
│    │    └─ReLU: 3-3                    [128, 128, 32, 32]        --
│    └─Sequential: 2-9                   [128, 128, 32, 32]        --
│    │    └─Conv2d: 3-4                  [128, 128, 32, 32]        147,584
│    │    └─BatchNorm2d: 3-5             [128, 128, 32, 32]        256
│    │    └─ReLU: 3-6                    [128, 128, 32, 32]        --
├─Sequential: 1-4                        [128, 256, 16, 16]        --
│    └─Conv2d: 2-10                      [128, 256, 32, 32]        295,168
│    └─BatchNorm2d: 2-11                 [128, 256, 32, 32]        512
│    └─ReLU: 2-12                        [128, 256, 32, 32]        --
│    └─MaxPool2d: 2-13                   [128, 256, 16, 16]        --
├─Sequential: 1-5                        [128, 512, 8, 8]          --
│    └─Conv2d: 2-14                      [128, 512, 16, 16]        1,180,160
│    └─BatchNorm2d: 2-15                 [128, 512, 16, 16]        1,024
│    └─ReLU: 2-16                        [128, 512, 16, 16]        --
│    └─MaxPool2d: 2-17                   [128, 512, 8, 8]          --
├─Sequential: 1-6                        [128, 512, 8, 8]          --
│    └─Sequential: 2-18                  [128, 512, 8, 8]          --
│    │    └─Conv2d: 3-7                  [128, 512, 8, 8]          2,359,808
│    │    └─BatchNorm2d: 3-8             [128, 512, 8, 8]          1,024
│    │    └─ReLU: 3-9                    [128, 512, 8, 8]          --
│    └─Sequential: 2-19                  [128, 512, 8, 8]          --
│    │    └─Conv2d: 3-10                 [128, 512, 8, 8]          2,359,808
│    │    └─BatchNorm2d: 3-11            [128, 512, 8, 8]          1,024
│    │    └─ReLU: 3-12                   [128, 512, 8, 8]          --
├─Sequential: 1-7                        [128, 1024, 4, 4]         --
│    └─Conv2d: 2-20                      [128, 1024, 8, 8]         4,719,616
│    └─BatchNorm2d: 2-21                 [128, 1024, 8, 8]         2,048
│    └─ReLU: 2-22                        [128, 1024, 8, 8]         --
│    └─MaxPool2d: 2-23                   [128, 1024, 4, 4]         --
├─Sequential: 1-8                        [128, 42]                 --
│    └─MaxPool2d: 2-24                   [128, 1024, 1, 1]         --
│    └─Flatten: 2-25                     [128, 1024]               --
│    └─Linear: 2-26                      [128, 42]                 43,050
==========================================================================================
Total params: 11,334,954
Trainable params: 11,334,954
Non-trainable params: 0
Total mult-adds (G): 233.04
==========================================================================================
Input size (MB): 6.29
Forward/backward pass size (MB): 3221.27
Params size (MB): 45.34
Estimated Total Size (MB): 3272.90
…
