…
=================================================================================================================================================================================================================================
Layer (type (var_name))                            Input Shape               Output Shape              Param #                   Param %                   Kernel Shape              Mult-Adds                 Trainable
=================================================================================================================================================================================================================================
MyUnet (MyUnet)                                    [20, 3, 256, 256]         [20, 2, 256, 256]         --                             --                   --                        --                        True
├─MyEncoder (encoder)                              [20, 3, 256, 256]         [20, 3, 256, 256]         --                             --                   --                        --                        True
│    └─ConvBlock (conv_1)                          [20, 3, 256, 256]         [20, 64, 64, 64]          --                             --                   [3, 3]                    --                        True
│    │    └─Conv2d (conv)                          [20, 3, 256, 256]         [20, 64, 64, 64]          1,792                       0.01%                   [3, 3]                    146,800,640               True
│    │    └─BatchNorm2d (bn)                       [20, 64, 64, 64]          [20, 64, 64, 64]          128                         0.00%                   --                        2,560                     True
│    │    └─ReLU (activation)                      [20, 64, 64, 64]          [20, 64, 64, 64]          --                             --                   --                        --                        --
│    └─ResidualStepBlock (conv_2_residual)         [20, 64, 64, 64]          [20, 96, 32, 32]          --                             --                   --                        --                        True
│    │    └─Sequential (innerConvs)                [20, 64, 64, 64]          [20, 96, 64, 64]          69,936                      0.38%                   --                        5,553,563,520             True
│    │    └─ConvBlock (spatialConv)                [20, 96, 64, 64]          [20, 96, 32, 32]          83,232                      0.45%                   [3, 3]                    1,700,663,040             True
│    └─ResidualStepBlock (conv_3_residual)         [20, 96, 32, 32]          [20, 128, 16, 16]         --                             --                   --                        --                        True
│    │    └─Sequential (innerConvs)                [20, 96, 32, 32]          [20, 128, 32, 32]         249,200                     1.36%                   --                        4,994,277,760             True
│    │    └─ConvBlock (spatialConv)                [20, 128, 32, 32]         [20, 128, 16, 16]         147,840                     0.81%                   [3, 3]                    755,635,200               True
│    └─ResidualStepBlock (conv_4_residual)         [20, 128, 16, 16]         [20, 256, 8, 8]           --                             --                   --                        --                        True
│    │    └─Sequential (innerConvs)                [20, 128, 16, 16]         [20, 256, 16, 16]         654,528                     3.56%                   --                        3,307,445,760             True
│    │    └─ConvBlock (spatialConv)                [20, 256, 16, 16]         [20, 256, 8, 8]           590,592                     3.22%                   [3, 3]                    755,312,640               True
│    └─ResidualStepBlock (conv_5_residual)         [20, 256, 8, 8]           [20, 512, 4, 4]           --                             --                   --                        --                        True
│    │    └─Sequential (innerConvs)                [20, 256, 8, 8]           [20, 512, 8, 8]           5,062,528                  27.57%                   --                        6,439,070,720             True
│    │    └─ConvBlock (spatialConv)                [20, 512, 8, 8]           [20, 512, 4, 4]           2,360,832                  12.86%                   [3, 3]                    755,159,040               True
├─MyDecoder (decoder)                              [20, 3, 256, 256]         [20, 3, 256, 256]         --                             --                   --                        --                        True
│    └─ResidualStepBlock (deconv_1_residual)       [20, 512, 4, 4]           [20, 256, 8, 8]           --                             --                   --                        --                        True
│    │    └─Sequential (innerConvs)                [20, 512, 4, 4]           [20, 256, 4, 4]           6,257,536                  34.08%                   --                        1,991,429,120             True
│    │    └─DeConvBlock (spatialConv)              [20, 256, 4, 4]           [20, 256, 8, 8]           1,049,344                   5.72%                   [4, 4]                    1,342,515,200             True
│    └─ResidualStepBlock (deconv_2_residual)       [20, 256, 8, 8]           [20, 128, 16, 16]         --                             --                   --                        --                        True
│    │    └─Sequential (innerConvs)                [20, 256, 8, 8]           [20, 128, 8, 8]           957,120                     5.21%                   --                        1,211,727,360             True
│    │    └─DeConvBlock (spatialConv)              [20, 128, 8, 8]           [20, 128, 16, 16]         262,528                     1.43%                   [4, 4]                    1,342,837,760             True
│    └─ResidualStepBlock (deconv_3_residual)       [20, 128, 16, 16]         [20, 96, 32, 32]          --                             --                   --                        --                        True
│    │    └─Sequential (innerConvs)                [20, 128, 16, 16]         [20, 96, 16, 16]          294,128                     1.60%                   --                        1,476,069,760             True
│    │    └─DeConvBlock (spatialConv)              [20, 96, 16, 16]          [20, 96, 32, 32]          147,744                     0.80%                   [4, 4]                    3,021,868,800             True
│    └─ResidualStepBlock (deconv_4_residual)       [20, 96, 32, 32]          [20, 64, 64, 64]          --                             --                   --                        --                        True
│    │    └─Sequential (innerConvs)                [20, 96, 32, 32]          [20, 64, 32, 32]          102,576                     0.56%                   --                        2,046,414,720             True
│    │    └─DeConvBlock (spatialConv)              [20, 64, 32, 32]          [20, 64, 64, 64]          65,728                      0.36%                   [4, 4]                    5,373,954,560             True
│    └─DeConvBlock (deconv_5)                      [20, 64, 64, 64]          [20, 3, 256, 256]         --                             --                   [4, 4]                    --                        True
│    │    └─ConvTranspose2d (conv)                 [20, 64, 64, 64]          [20, 3, 256, 256]         3,075                       0.02%                   [4, 4]                    4,030,464,000             True
│    │    └─BatchNorm2d (bn)                       [20, 3, 256, 256]         [20, 3, 256, 256]         6                           0.00%                   --                        120                       True
│    │    └─ReLU (activation)                      [20, 3, 256, 256]         [20, 3, 256, 256]         --                             --                   --                        --                        --
├─ConvBlock (classificator)                        [20, 3, 256, 256]         [20, 2, 256, 256]         --                             --                   [3, 3]                    --                        True
│    └─Conv2d (conv)                               [20, 3, 256, 256]         [20, 2, 256, 256]         56                          0.00%                   [3, 3]                    73,400,320                True
│    └─BatchNorm2d (bn)                            [20, 2, 256, 256]         [20, 2, 256, 256]         4                           0.00%                   --                        80                        True
│    └─ReLU (activation)                           [20, 2, 256, 256]         [20, 2, 256, 256]         --                             --                   --                        --                        --
=================================================================================================================================================================================================================================
Total params: 18,360,453
Trainable params: 18,360,453
Non-trainable params: 0
…
