…
=============================================================================================================
Layer (type (var_name))                  Input Shape               Output Shape              Param #                   Param %                   Kernel Shape              Mult-Adds                 Trainable
=======================================================================================================================================================================================================================
Model (Model)                            [128, 3, 64, 64]          [128, 42]                 --                             --                   --                        --                        True
├─Sequential (conv1)                     [128, 3, 64, 64]          [128, 64, 64, 64]         --                             --                   --                        --                        True
│    └─myConvBlock (0)                   [128, 3, 64, 64]          [128, 64, 64, 64]         1,920                       0.02%                   [3, 3]                    939,540,480               True
├─Sequential (conv2)                     [128, 64, 64, 64]         [128, 128, 32, 32]        --                             --                   --                        --                        True
│    └─myConvBlock (0)                   [128, 64, 64, 64]         [128, 128, 64, 64]        74,112                      0.81%                   [3, 3]                    38,721,847,296            True
│    └─MaxPool2d (1)                     [128, 128, 64, 64]        [128, 128, 32, 32]        --                             --                   2                         --                        --
├─Sequential (residualBlock_1)           [128, 128, 32, 32]        [128, 128, 32, 32]        --                             --                   --                        --                        True
│    └─myConvBlock (0)                   [128, 128, 32, 32]        [128, 512, 32, 32]        67,072                      0.73%                   [1, 1]                    8,657,174,528             True
│    └─myConvBlock (1)                   [128, 512, 32, 32]        [128, 512, 32, 32]        6,144                       0.07%                   [3, 3]                    671,219,712               True
│    └─myConvBlock (2)                   [128, 512, 32, 32]        [128, 128, 32, 32]        65,920                      0.72%                   [1, 1]                    8,606,744,576             True
├─Sequential (conv3)                     [128, 128, 32, 32]        [128, 256, 16, 16]        --                             --                   --                        --                        True
│    └─myConvBlock (0)                   [128, 128, 32, 32]        [128, 256, 32, 32]        295,680                     3.24%                   [3, 3]                    38,688,325,632            True
│    └─MaxPool2d (1)                     [128, 256, 32, 32]        [128, 256, 16, 16]        --                             --                   2                         --                        --
├─Sequential (conv4)                     [128, 256, 16, 16]        [128, 512, 8, 8]          --                             --                   --                        --                        True
│    └─myConvBlock (0)                   [128, 256, 16, 16]        [128, 512, 16, 16]        1,181,184                  12.92%                   [3, 3]                    38,671,613,952            True
│    └─MaxPool2d (1)                     [128, 512, 16, 16]        [128, 512, 8, 8]          --                             --                   2                         --                        --
├─Sequential (residualBlock_2)           [128, 512, 8, 8]          [128, 512, 8, 8]          --                             --                   --                        --                        True
│    └─myConvBlock (0)                   [128, 512, 8, 8]          [128, 2048, 8, 8]         1,054,720                  11.54%                   [1, 1]                    8,607,236,096             True
│    └─myConvBlock (1)                   [128, 2048, 8, 8]         [128, 2048, 8, 8]         24,576                      0.27%                   [3, 3]                    168,296,448               True
│    └─myConvBlock (2)                   [128, 2048, 8, 8]         [128, 512, 8, 8]          1,050,112                  11.49%                   [1, 1]                    8,594,259,968             True
├─Sequential (conv5)                     [128, 512, 8, 8]          [128, 1024, 4, 4]         --                             --                   --                        --                        True
│    └─myConvBlock (0)                   [128, 512, 8, 8]          [128, 1024, 8, 8]         4,721,664                  51.67%                   [3, 3]                    38,663,356,416            True
│    └─MaxPool2d (1)                     [128, 1024, 8, 8]         [128, 1024, 4, 4]         --                             --                   2                         --                        --
├─Sequential (res)                       [128, 1024, 4, 4]         [128, 42]                 --                             --                   --                        --                        True
│    └─MaxPool2d (0)                     [128, 1024, 4, 4]         [128, 1024, 1, 1]         --                             --                   4                         --                        --
│    └─Flatten (1)                       [128, 1024, 1, 1]         [128, 1024]               --                             --                   --                        --                        --
│    └─Dropout (2)                       [128, 1024]               [128, 1024]               --                             --                   --                        --                        --
│    └─Linear (3)                        [128, 1024]               [128, 512]                524,800                     5.74%                   --                        67,174,400                True
│    └─Linear (4)                        [128, 512]                [128, 128]                65,664                      0.72%                   --                        8,404,992                 True
│    └─Linear (5)                        [128, 128]                [128, 42]                 5,418                       0.06%                   --                        693,504                   True
=======================================================================================================================================================================================================================
Total params: 9,138,986
Trainable params: 9,138,986
Non-trainable params: 0
Total mult-adds (G): 191.07
…
